…
Inferred Answer: In 2019, the king of France is Louis XVI. Louis XVI was the king of France from 1774 to 1792. Louis XVI was born in 1754 and died in 1793. Louis XVI married Marie Antoinette in 1770. Marie Antoinette was the queen of France from 1774 to 1792. Marie Antoinette was born in 1755 and died in 1793. Louis XVI and Marie Antoinette had

============ Running generate_chatbot_shapes.py (3B) ============
cuda PYTORCH_CUDA_ALLOC_CONF =  garbage_collection_threshold:0.6,max_split_size_mb:256
cuda memory (free  0 ; reserved  0 ; allocated  0 )
device used = cuda
Infer Alpaca-LoRA model with params:
base_model: openlm-research/open_llama_3b_v2
test_file: 

pad token = unk token =  0


model architecture:
OptimizedModule(
  (_orig_mod): LlamaForCausalLM(
    (model): LlamaModel(
      (embed_tokens): Embedding(32000, 3200, padding_idx=0)
      (layers): ModuleList(
        (0-25): 26 x LlamaDecoderLayer(
          (self_attn): LlamaAttention(
            (q_proj): Linear(in_features=3200, out_features=3200, bias=False)
            (k_proj): Linear(in_features=3200, out_features=3200, bias=False)
            (v_proj): Linear(in_features=3200, out_features=3200, bias=False)
            (o_proj): Linear(in_features=3200, out_features=3200, bias=False)
            (rotary_emb): LlamaRotaryEmbedding()
          )
          (mlp): LlamaMLP(
            (gate_proj): Linear(in_features=3200, out_features=8640, bias=False)
            (down_proj): Linear(in_features=8640, out_features=3200, bias=False)
            (up_proj): Linear(in_features=3200, out_features=8640, bias=False)
            (act_fn): SiLUActivation()
          )
          (input_layernorm): LlamaRMSNorm()
          (post_attention_layernorm): LlamaRMSNorm()
        )
      )
      (norm): LlamaRMSNorm()
    )
    (lm_head): Linear(in_features=3200, out_features=32000, bias=False)
  )
)

embedding layer:
Embedding(32000, 3200, padding_idx=0)

first decoder layer:
LlamaDecoderLayer(
  (self_attn): LlamaAttention(
    (q_proj): Linear(in_features=3200, out_features=3200, bias=False)
    (k_proj): Linear(in_features=3200, out_features=3200, bias=False)
    (v_proj): Linear(in_features=3200, out_features=3200, bias=False)
    (o_proj): Linear(in_features=3200, out_features=3200, bias=False)
    (rotary_emb): LlamaRotaryEmbedding()
  )
  (mlp): LlamaMLP(
    (gate_proj): Linear(in_features=3200, out_features=8640, bias=False)
    (down_proj): Linear(in_features=8640, out_features=3200, bias=False)
    (up_proj): Linear(in_features=3200, out_features=8640, bias=False)
    (act_fn): SiLUActivation()
  )
  (input_layernorm): LlamaRMSNorm()
  (post_attention_layernorm): LlamaRMSNorm()
)

first self-attention layer:
LlamaAttention(
  (q_proj): Linear(in_features=3200, out_features=3200, bias=False)
  (k_proj): Linear(in_features=3200, out_features=3200, bias=False)
  (v_proj): Linear(in_features=3200, out_features=3200, bias=False)
  (o_proj): Linear(in_features=3200, out_features=3200, bias=False)
  (rotary_emb): LlamaRotaryEmbedding()
)


tensor input shape (embedding layer):
torch.Size([1])

tensor output shape (embedding layer):
size =  torch.Size([1, 3200])
embedding (static) tensor for vocab index 1 =  tensor([[ 1.0315e-02,  2.8687e-03,  5.9128e-04,  ..., -1.8845e-03,
         -9.2983e-05, -3.0060e-03]], device='cuda:0', dtype=torch.float16,
…
